========================================================================================================================
Layer (type (var_name))                  Input Shape          Output Shape         Param #              Trainable
========================================================================================================================
VisionTransformer (VisionTransformer)    [32, 3, 384, 384]    [32, 1]              443,904              True
├─PatchEmbed (patch_embed)               [32, 3, 384, 384]    [32, 576, 768]       --                   True
│    └─Conv2d (proj)                     [32, 3, 384, 384]    [32, 768, 24, 24]    590,592              True
│    └─Identity (norm)                   [32, 576, 768]       [32, 576, 768]       --                   --
├─Dropout (pos_drop)                     [32, 577, 768]       [32, 577, 768]       --                   --
├─Identity (patch_drop)                  [32, 577, 768]       [32, 577, 768]       --                   --
├─Identity (norm_pre)                    [32, 577, 768]       [32, 577, 768]       --                   --
├─Sequential (blocks)                    [32, 577, 768]       [32, 577, 768]       --                   True
│    └─Block (0)                         [32, 577, 768]       [32, 577, 768]       --                   True
│    │    └─LayerNorm (norm1)            [32, 577, 768]       [32, 577, 768]       1,536                True
│    │    └─Attention (attn)             [32, 577, 768]       [32, 577, 768]       2,362,368            True
│    │    └─Identity (ls1)               [32, 577, 768]       [32, 577, 768]       --                   --
│    │    └─Identity (drop_path1)        [32, 577, 768]       [32, 577, 768]       --                   --
│    │    └─LayerNorm (norm2)            [32, 577, 768]       [32, 577, 768]       1,536                True
│    │    └─Mlp (mlp)                    [32, 577, 768]       [32, 577, 768]       4,722,432            True
│    │    └─Identity (ls2)               [32, 577, 768]       [32, 577, 768]       --                   --
│    │    └─Identity (drop_path2)        [32, 577, 768]       [32, 577, 768]       --                   --
│    └─Block (1)                         [32, 577, 768]       [32, 577, 768]       --                   True
│    │    └─LayerNorm (norm1)            [32, 577, 768]       [32, 577, 768]       1,536                True
│    │    └─Attention (attn)             [32, 577, 768]       [32, 577, 768]       2,362,368            True
│    │    └─Identity (ls1)               [32, 577, 768]       [32, 577, 768]       --                   --
│    │    └─Identity (drop_path1)        [32, 577, 768]       [32, 577, 768]       --                   --
│    │    └─LayerNorm (norm2)            [32, 577, 768]       [32, 577, 768]       1,536                True
│    │    └─Mlp (mlp)                    [32, 577, 768]       [32, 577, 768]       4,722,432            True
│    │    └─Identity (ls2)               [32, 577, 768]       [32, 577, 768]       --                   --
│    │    └─Identity (drop_path2)        [32, 577, 768]       [32, 577, 768]       --                   --
│    └─Block (2)                         [32, 577, 768]       [32, 577, 768]       --                   True
│    │    └─LayerNorm (norm1)            [32, 577, 768]       [32, 577, 768]       1,536                True
│    │    └─Attention (attn)             [32, 577, 768]       [32, 577, 768]       2,362,368            True
│    │    └─Identity (ls1)               [32, 577, 768]       [32, 577, 768]       --                   --
│    │    └─Identity (drop_path1)        [32, 577, 768]       [32, 577, 768]       --                   --
│    │    └─LayerNorm (norm2)            [32, 577, 768]       [32, 577, 768]       1,536                True
│    │    └─Mlp (mlp)                    [32, 577, 768]       [32, 577, 768]       4,722,432            True
│    │    └─Identity (ls2)               [32, 577, 768]       [32, 577, 768]       --                   --
│    │    └─Identity (drop_path2)        [32, 577, 768]       [32, 577, 768]       --                   --
│    └─Block (3)                         [32, 577, 768]       [32, 577, 768]       --                   True
│    │    └─LayerNorm (norm1)            [32, 577, 768]       [32, 577, 768]       1,536                True
│    │    └─Attention (attn)             [32, 577, 768]       [32, 577, 768]       2,362,368            True
│    │    └─Identity (ls1)               [32, 577, 768]       [32, 577, 768]       --                   --
│    │    └─Identity (drop_path1)        [32, 577, 768]       [32, 577, 768]       --                   --
│    │    └─LayerNorm (norm2)            [32, 577, 768]       [32, 577, 768]       1,536                True
│    │    └─Mlp (mlp)                    [32, 577, 768]       [32, 577, 768]       4,722,432            True
│    │    └─Identity (ls2)               [32, 577, 768]       [32, 577, 768]       --                   --
│    │    └─Identity (drop_path2)        [32, 577, 768]       [32, 577, 768]       --                   --
│    └─Block (4)                         [32, 577, 768]       [32, 577, 768]       --                   True
│    │    └─LayerNorm (norm1)            [32, 577, 768]       [32, 577, 768]       1,536                True
│    │    └─Attention (attn)             [32, 577, 768]       [32, 577, 768]       2,362,368            True
│    │    └─Identity (ls1)               [32, 577, 768]       [32, 577, 768]       --                   --
│    │    └─Identity (drop_path1)        [32, 577, 768]       [32, 577, 768]       --                   --
│    │    └─LayerNorm (norm2)            [32, 577, 768]       [32, 577, 768]       1,536                True
│    │    └─Mlp (mlp)                    [32, 577, 768]       [32, 577, 768]       4,722,432            True
│    │    └─Identity (ls2)               [32, 577, 768]       [32, 577, 768]       --                   --
│    │    └─Identity (drop_path2)        [32, 577, 768]       [32, 577, 768]       --                   --
│    └─Block (5)                         [32, 577, 768]       [32, 577, 768]       --                   True
│    │    └─LayerNorm (norm1)            [32, 577, 768]       [32, 577, 768]       1,536                True
│    │    └─Attention (attn)             [32, 577, 768]       [32, 577, 768]       2,362,368            True
│    │    └─Identity (ls1)               [32, 577, 768]       [32, 577, 768]       --                   --
│    │    └─Identity (drop_path1)        [32, 577, 768]       [32, 577, 768]       --                   --
│    │    └─LayerNorm (norm2)            [32, 577, 768]       [32, 577, 768]       1,536                True
│    │    └─Mlp (mlp)                    [32, 577, 768]       [32, 577, 768]       4,722,432            True
│    │    └─Identity (ls2)               [32, 577, 768]       [32, 577, 768]       --                   --
│    │    └─Identity (drop_path2)        [32, 577, 768]       [32, 577, 768]       --                   --
│    └─Block (6)                         [32, 577, 768]       [32, 577, 768]       --                   True
│    │    └─LayerNorm (norm1)            [32, 577, 768]       [32, 577, 768]       1,536                True
│    │    └─Attention (attn)             [32, 577, 768]       [32, 577, 768]       2,362,368            True
│    │    └─Identity (ls1)               [32, 577, 768]       [32, 577, 768]       --                   --
│    │    └─Identity (drop_path1)        [32, 577, 768]       [32, 577, 768]       --                   --
│    │    └─LayerNorm (norm2)            [32, 577, 768]       [32, 577, 768]       1,536                True
│    │    └─Mlp (mlp)                    [32, 577, 768]       [32, 577, 768]       4,722,432            True
│    │    └─Identity (ls2)               [32, 577, 768]       [32, 577, 768]       --                   --
│    │    └─Identity (drop_path2)        [32, 577, 768]       [32, 577, 768]       --                   --
│    └─Block (7)                         [32, 577, 768]       [32, 577, 768]       --                   True
│    │    └─LayerNorm (norm1)            [32, 577, 768]       [32, 577, 768]       1,536                True
│    │    └─Attention (attn)             [32, 577, 768]       [32, 577, 768]       2,362,368            True
│    │    └─Identity (ls1)               [32, 577, 768]       [32, 577, 768]       --                   --
│    │    └─Identity (drop_path1)        [32, 577, 768]       [32, 577, 768]       --                   --
│    │    └─LayerNorm (norm2)            [32, 577, 768]       [32, 577, 768]       1,536                True
│    │    └─Mlp (mlp)                    [32, 577, 768]       [32, 577, 768]       4,722,432            True
│    │    └─Identity (ls2)               [32, 577, 768]       [32, 577, 768]       --                   --
│    │    └─Identity (drop_path2)        [32, 577, 768]       [32, 577, 768]       --                   --
│    └─Block (8)                         [32, 577, 768]       [32, 577, 768]       --                   True
│    │    └─LayerNorm (norm1)            [32, 577, 768]       [32, 577, 768]       1,536                True
│    │    └─Attention (attn)             [32, 577, 768]       [32, 577, 768]       2,362,368            True
│    │    └─Identity (ls1)               [32, 577, 768]       [32, 577, 768]       --                   --
│    │    └─Identity (drop_path1)        [32, 577, 768]       [32, 577, 768]       --                   --
│    │    └─LayerNorm (norm2)            [32, 577, 768]       [32, 577, 768]       1,536                True
│    │    └─Mlp (mlp)                    [32, 577, 768]       [32, 577, 768]       4,722,432            True
│    │    └─Identity (ls2)               [32, 577, 768]       [32, 577, 768]       --                   --
│    │    └─Identity (drop_path2)        [32, 577, 768]       [32, 577, 768]       --                   --
│    └─Block (9)                         [32, 577, 768]       [32, 577, 768]       --                   True
│    │    └─LayerNorm (norm1)            [32, 577, 768]       [32, 577, 768]       1,536                True
│    │    └─Attention (attn)             [32, 577, 768]       [32, 577, 768]       2,362,368            True
│    │    └─Identity (ls1)               [32, 577, 768]       [32, 577, 768]       --                   --
│    │    └─Identity (drop_path1)        [32, 577, 768]       [32, 577, 768]       --                   --
│    │    └─LayerNorm (norm2)            [32, 577, 768]       [32, 577, 768]       1,536                True
│    │    └─Mlp (mlp)                    [32, 577, 768]       [32, 577, 768]       4,722,432            True
│    │    └─Identity (ls2)               [32, 577, 768]       [32, 577, 768]       --                   --
│    │    └─Identity (drop_path2)        [32, 577, 768]       [32, 577, 768]       --                   --
│    └─Block (10)                        [32, 577, 768]       [32, 577, 768]       --                   True
│    │    └─LayerNorm (norm1)            [32, 577, 768]       [32, 577, 768]       1,536                True
│    │    └─Attention (attn)             [32, 577, 768]       [32, 577, 768]       2,362,368            True
│    │    └─Identity (ls1)               [32, 577, 768]       [32, 577, 768]       --                   --
│    │    └─Identity (drop_path1)        [32, 577, 768]       [32, 577, 768]       --                   --
│    │    └─LayerNorm (norm2)            [32, 577, 768]       [32, 577, 768]       1,536                True
│    │    └─Mlp (mlp)                    [32, 577, 768]       [32, 577, 768]       4,722,432            True
│    │    └─Identity (ls2)               [32, 577, 768]       [32, 577, 768]       --                   --
│    │    └─Identity (drop_path2)        [32, 577, 768]       [32, 577, 768]       --                   --
│    └─Block (11)                        [32, 577, 768]       [32, 577, 768]       --                   True
│    │    └─LayerNorm (norm1)            [32, 577, 768]       [32, 577, 768]       1,536                True
│    │    └─Attention (attn)             [32, 577, 768]       [32, 577, 768]       2,362,368            True
│    │    └─Identity (ls1)               [32, 577, 768]       [32, 577, 768]       --                   --
│    │    └─Identity (drop_path1)        [32, 577, 768]       [32, 577, 768]       --                   --
│    │    └─LayerNorm (norm2)            [32, 577, 768]       [32, 577, 768]       1,536                True
│    │    └─Mlp (mlp)                    [32, 577, 768]       [32, 577, 768]       4,722,432            True
│    │    └─Identity (ls2)               [32, 577, 768]       [32, 577, 768]       --                   --
│    │    └─Identity (drop_path2)        [32, 577, 768]       [32, 577, 768]       --                   --
├─LayerNorm (norm)                       [32, 577, 768]       [32, 577, 768]       1,536                True
├─Identity (fc_norm)                     [32, 768]            [32, 768]            --                   --
├─Dropout (head_drop)                    [32, 768]            [32, 768]            --                   --
├─Linear (head)                          [32, 768]            [32, 1]              769                  True
========================================================================================================================
Total params: 86,091,265
Trainable params: 86,091,265
Non-trainable params: 0
Total mult-adds (Units.GIGABYTES): 13.61
========================================================================================================================
Input size (MB): 56.62
…
